第五次作业/model_storage/ch7/model2_conditioned_surname_generation/model.pth (torch, 53160 bytes, 8 tensors)

char_emb.weight f4 [88, 32]
0	0x00000000	0.0
1	0x00000000	0.0
2	0x00000000	0.0
3	0x00000000	0.0
4	0x00000000	0.0
5	0x00000000	0.0
6	0x00000000	0.0
7	0x00000000	0.0
8	0x00000000	0.0
9	0x00000000	0.0
10	0x00000000	0.0
11	0x00000000	0.0
12	0x00000000	0.0
13	0x00000000	0.0
14	0x00000000	0.0
15	0x00000000	0.0
16	0x00000000	0.0
17	0x00000000	0.0
18	0x00000000	0.0
19	0x00000000	0.0
20	0x00000000	0.0
21	0x00000000	0.0
22	0x00000000	0.0
23	0x00000000	0.0
24	0x00000000	0.0
25	0x00000000	0.0
26	0x00000000	0.0
27	0x00000000	0.0
28	0x00000000	0.0
29	0x00000000	0.0
30	0x00000000	0.0
31	0x00000000	0.0
32	0xbf29c0a7	-0.6630959
33	0xbe80a726	-0.25127524
34	0x3f814c6d	1.0101448
35	0x3df8ed81	0.12154675
36	0x3e223370	0.15839934
37	0x3f912787	1.1340188
38	0xbf93b2eb	-1.1538976
39	0xbe98c778	-0.29839683
40	0xbf01edea	-0.50753653
41	0xbf6c8619	-0.92392117
42	0x3f0bf4ee	0.5467061
43	0xbfbf54df	-1.4947776
44	0xbf9a54dd	-1.2057148
45	0x3f1262c9	0.57181984
46	0xbf18ec39	-0.5973545
47	0xbf3194bb	-0.6936757
48	0x3fd2a103	1.6455387
49	0xbf4d90f5	-0.8029931
50	0x3facfb08	1.3514109
51	0xbe8d454d	-0.27591935
52	0xbfc16307	-1.5108346
53	0x4006b49a	2.104773
54	0x4030d452	2.762959
55	0xbfdf8e45	-1.7465292
56	0x3fb9cdb5	1.4515902
57	0xbfc150f5	-1.5102831
58	0x3f523722	0.82115376
59	0xbe589a99	-0.21152724
60	0x3f4765e1	0.7788983
61	0x3fc44227	1.5332688
62	0x3fce0bd8	1.6097364
63	0xbece73eb	-0.40322813
64	0xbf80b224	-1.0054364
65	0x3f2f63b9	0.6851154
66	0x3d2892e8	0.041155726
67	0xbe33fca5	-0.17576845
68	0xbf334149	-0.7002149
69	0x3f15027a	0.58206904
70	0xbdad9a9a	-0.084767535
71	0xbfb9e8fc	-1.4524226
72	0x4015d204	2.3409433
73	0xbf1647dc	-0.587034
74	0x3d2e2079	0.042511437
75	0x3f6c9388	0.92412615
76	0xbfbc8a71	-1.4729749
77	0x3f9dd8ed	1.2331825
78	0x3e2275de	0.15865275
79	0x3ee813c1	0.4532757
80	0x402d27bd	2.7055504
81	0xbfb22040	-1.3916092
82	0x3fa7a920	1.3098488
83	0x3f2e46a7	0.68076557
84	0xbfed7759	-1.8552047
85	0xbfb8a932	-1.4426634
86	0x3f5b2155	0.85597736
87	0xbd8c393b	-0.06846853
88	0x3efd0f5b	0.49425778
89	0xbf14e500	-0.58161926
90	0x3f321496	0.6956266
91	0xbf32c5e4	-0.6983321
92	0xbeabcd50	-0.33555079
93	0xbf068c00	-0.52557373
94	0xbfaddd1c	-1.3583102
95	0xbf367f09	-0.7128759
96	0xbfd55e31	-1.666937
97	0xbfaebd08	-1.3651438
98	0xbe297f26	-0.1655241
99	0x3f76561e	0.96225154
100	0x3d013969	0.03154889
101	0xbf3ded43	-0.7419016
102	0xbe9877e0	-0.29778957
103	0x3c8c9f03	0.017165666
104	0xbe357a2f	-0.1772239
105	0xbe08a1bf	-0.13342951
106	0x3e968194	0.29395735
107	0x3fb1462d	1.3849541
108	0x3df7a11c	0.12091276
109	0x4022aca4	2.5417871
110	0xbf23f530	-0.64046
111	0xbffcac60	-1.9740105
112	0xbea8bd4d	-0.32956925
113	0x3c0265d7	0.007958851
114	0x3f6d1db9	0.9262348
115	0xbff1391e	-1.8845556
116	0x3e2af7fb	0.1669616
117	0x3eead08c	0.45862234
118	0xbfe2130e	-1.7662065
119	0x3f160331	0.5859862
120	0x3fe021cd	1.7510315
121	0x3e8fbad0	0.28072214
122	0x3e9f3690	0.31096315
123	0xbf275cb0	-0.65375805
124	0xbf285a33	-0.65762633
125	0x3ea30bce	0.31844944
126	0xbf0cb1b3	-0.5495865
127	0xbfbb82a5	-1.4649245
128	0xc019a791	-2.4008524
129	0x401dde4c	2.466693
130	0x3f9e710d	1.237825
131	0xbecec5f4	-0.403854
132	0x3f61214e	0.87941444
133	0x3fa27f50	1.2695103
134	0xbeb434fe	-0.3519668
135	0xbf88b121	-1.0679055
136	0x3e4b4861	0.19851829
137	0x3d3ee238	0.046602458
138	0x3f0ab0dd	0.5417612
139	0x3f1c8cad	0.61152154
140	0x3e38580e	0.1800234
141	0xbf63a465	-0.8892272
142	0x3eaa6bf1	0.33285478
143	0x3f503091	0.81324106
144	0x4012d2b3	2.29411
145	0x3fa720fd	1.3056942
146	0xbfc97448	-1.5738611
147	0xbee77fd1	-0.45214704
148	0xbed1a535	-0.40946355
149	0xbf283122	-0.6569997
150	0xbf6cb6c9	-0.9246641
151	0x3f7dd48c	0.99152446
152	0xbf83c42f	-1.0294245
153	0x3f27a067	0.6547913
154	0x3f82c7fe	1.0217283
155	0xbe7b27eb	-0.24526946
156	0xbfa8fa57	-1.3201398
157	0xbe9cba31	-0.30610803
158	0x3faaed0a	1.3353589
159	0xbe616d67	-0.2201439
160	0xbf9dfb2d	-1.2342278
161	0x3e9d4a5c	0.30720794
162	0xbdfe0d26	-0.124048516
163	0x400e31c5	2.2217877
164	0xc04b1bc2	-3.1735692
165	0x3dd4d7bc	0.103927106
166	0xbf6e4d1e	-0.9308642
167	0xbf0e91e7	-0.5569138
168	0x3e87ec1b	0.26547322
169	0x400cfacb	2.2028072
170	0xbf18392c	-0.5946224
171	0xbe57bddd	-0.21068521
172	0xbfa22cec	-1.2669959
173	0xbe96793b	-0.29389367
174	0xbfffbd87	-1.9979714
175	0xbfbe6b06	-1.4876411
176	0xbf04657e	-0.51717365
177	0xbf7f3e38	-0.99704313
178	0x3e0e0c72	0.13871935
179	0x3e88992e	0.26679367
180	0x3ed611c5	0.41810432
181	0x3f156795	0.5836118
182	0xbfedfaf7	-1.8592213
183	0x3f769921	0.96327406
184	0x3f9c1e42	1.2196734
185	0x3f9b7cd9	1.2147475
186	0x3f183087	0.59449047
187	0xbfb5d1d2	-1.4204657
188	0xbf1bad0a	-0.6081091
189	0x40162583	2.3460395
190	0x3ef2dbd1	0.47433332
191	0x3fc597ab	1.543691
192	0x3e7e2621	0.24819233
193	0xbefc0d04	-0.4922868
194	0x3ffa83b1	1.9571439
195	0x3fc4ab7d	1.5364834
196	0x3f6979bc	0.91201377
197	0xbefbd27a	-0.49184018
198	0xbed10c21	-0.40829566
199	0x3f4ac20a	0.7920233
200	0x3e2183bf	0.15772913
201	0xbfee0d66	-1.8597839
202	0x3f98780c	1.1911635
203	0x3ea70d9d	0.32627574
204	0xbfa363fa	-1.2764885
205	0xbf83002e	-1.023443
206	0xbe9d01c7	-0.30665419
207	0x3e84daf3	0.25948295
208	0x3eabba79	0.33540705
209	0xbeffe0d8	-0.4997623
210	0xbecc1805	-0.39862075
211	0xbf19dad4	-0.6009953
212	0x3f731063	0.9494688
213	0x3f7a87c2	0.978634
214	0x3fa9a44e	1.3253267
215	0x3f254cd5	0.6457036
216	0x3debd2b4	0.11514798
217	0x3f861123	1.047398
218	0xbedcc873	-0.4312168
219	0xbf12379b	-0.571161
220	0xbeb1e00c	-0.34741247
221	0x3e046312	0.12928417
222	0xbf08b7b6	-0.5340532
223	0xbe60db91	-0.21958758
224	0xbf4788f8	-0.7794337
225	0xbd47f6b4	-0.04881926
226	0xbdfc4a2e	-0.12318836
227	0xbed8de98	-0.42357326
228	0xbea84667	-0.32866213
229	0x3ee636f6	0.44963807
230	0xbd976e27	-0.07394057
231	0xbf2cfe4b	-0.6757552
232	0x3f7374da	0.95100176
233	0xbfd5a24e	-1.6690156
234	0x3f30e815	0.6910413
235	0xc00ece57	-2.231344
236	0xbf90731a	-1.1285126
237	0xbe1d1f80	-0.15344048
238	0xbf175d73	-0.5912697
239	0xbf1ed4ef	-0.6204366
240	0x3fad4c59	1.3538924
241	0xbde93bc5	-0.11388353
242	0xbf467125	-0.77516395
243	0xbf81909a	-1.0122254
244	0x3e4cc7b6	0.19998059
245	0xbef80a3f	-0.48445317
246	0xbe19d36a	-0.15022054
247	0xbf9a43e9	-1.2051975
248	0xbf124b1d	-0.57145864
249	0x3eacb9ab	0.33735403
250	0xbf8db1d8	-1.1069899
251	0xbfa50caa	-1.289449
252	0x3f9458b3	1.1589569
253	0xbfd44e8e	-1.6586473
254	0xbf0042b0	-0.5010176
255	0x3fb0f03f	1.3823317

nation_emb.weight f4 [18, 32]
0	0xbf504273	-0.81351393
1	0xbf3f8815	-0.7481702
2	0xbe80cfbf	-0.25158498
3	0x3f32d5f5	0.6985772
4	0xbfd5ae15	-1.6693751
5	0x3ecaba48	0.39595246
6	0x3fad64d8	1.35464
7	0xbf2bd04d	-0.67114717
8	0x3fa3fd49	1.2811671
9	0x3eee75dd	0.46574298
10	0x3f7a5cda	0.9779793
11	0xbe7201a8	-0.23633444
12	0x3d8d59e7	0.06901913
13	0xbf3b85ca	-0.7325102
14	0xbd83c731	-0.06434477
15	0xbf1a865a	-0.60361254
16	0x3fd3930c	1.652925
17	0x40232848	2.5493336
18	0x3ff4624d	1.9092499
19	0xbe6163c6	-0.22010717
20	0x3ee7317e	0.45154947
21	0x3f29ca52	0.6632434
22	0xbffe8986	-1.9885719
23	0xbf7c4008	-0.98535204
24	0x40153cab	2.3318279
25	0x4052eb2b	3.2956035
26	0xbf205edc	-0.62644744
27	0xbf97d4a9	-1.1861774
28	0xc02ba507	-2.6819475
29	0x3f6e6a93	0.9313137
30	0xbdb19275	-0.086705126
31	0x3f0bd706	0.54624975
32	0xbf5f0d32	-0.8712951
33	0x40166519	2.3499205
34	0xbfadabfb	-1.3568109
35	0x3eaed6b3	0.34148178
36	0x3f42dd05	0.761185
37	0x3fbfb258	1.4976301
38	0xbf7124dd	-0.94196874
39	0x40385a12	2.8804975
40	0xbf052f97	-0.5202574
41	0xbf623c75	-0.883735
42	0xbf9c93e1	-1.2232629
43	0xbf7efb8c	-0.9960258
44	0x3f972837	1.1809148
45	0x3fcd75e4	1.6051602
46	0xbebfd077	-0.37463734
47	0x3e812e6c	0.2523073
48	0x3f91f53c	1.1402965
49	0x3ff2d442	1.8971026
50	0xbf2a3e22	-0.6650106
51	0xbd562029	-0.052276764
52	0x3f148cb3	0.5802719
53	0x3ecdcba3	0.40194425
54	0x3fa6f9dc	1.3045001
55	0xbf93080a	-1.1486828
56	0x4014fd4b	2.3279598
57	0x3e3ae5ff	0.18251799
58	0x3fbe885b	1.4885362
59	0x3e17ae6f	0.14812635
60	0xbfe7a184	-1.8096166
61	0xbf6a726a	-0.9158083
62	0x401224ca	2.2834954
63	0x3f420fbb	0.7580525
64	0xbf6b109a	-0.91822207
65	0x3fc3745e	1.5269887
66	0xbfd667ca	-1.6750424
67	0xc00617db	-2.095206
68	0xbf435d81	-0.7631455
69	0x3f65e50a	0.8980261
70	0x401a4355	2.4103596
71	0x3efb713a	0.49109823
72	0xbfbf0151	-1.4922277
73	0xbee326e3	-0.44365606
74	0x3fd6e036	1.6787174
75	0x3fcd5d0d	1.6044022
76	0xbe8216d1	-0.25408033
77	0x3ed00270	0.4062686
78	0xbe5c7311	-0.2152827
79	0xbf153437	-0.582828
80	0x3fb3f5d8	1.40594
81	0x3f38e434	0.7222321
82	0x3f99be0d	1.2011124
83	0x3f96d19e	1.178272
84	0xbfe89e70	-1.8173351
85	0xbfca2209	-1.5791637
86	0xbf2d3b5f	-0.6766872
87	0xbe60c99a	-0.21951905
88	0x3f72fd42	0.9491769
89	0xbf7dece6	-0.99189603
90	0xbfaf51d1	-1.3696843
91	0x3f894b86	1.0726173
92	0xbda7bce1	-0.08190323
93	0x3f55e14e	0.8354691
94	0x3fe6165e	1.7975576
95	0x3e29feae	0.16601059
96	0xbfe331e0	-1.7749596
97	0xbe766875	-0.24063285
98	0x3d4a92be	0.04945635
99	0x3fe028e3	1.7512478
100	0x3dfb800d	0.12280283
101	0xbcd8a17d	-0.026444191
102	0x3edb4e31	0.42833093
103	0x3f626ddf	0.884489
104	0xbe7c2395	-0.24622948
105	0xbf6d0386	-0.925835
106	0x40088be0	2.1335373
107	0x3fda3cde	1.7049825
108	0x3fb5472a	1.4162343
109	0x3f639fad	0.8891552
110	0x3eaf54bb	0.34244332
111	0xbebb6e7d	-0.36607733
112	0xbf10c267	-0.56546634
113	0xbefce00d	-0.49389687
114	0xbec7fba9	-0.3905919
115	0xbf43bf55	-0.76463825
116	0xbe57aee5	-0.2106281
117	0xbfcb146a	-1.5865605
118	0xc00c445a	-2.1916718
119	0x3f28842c	0.6582668
120	0xbf23e132	-0.64015496
121	0x3c3b157b	0.011418696
122	0xbf55f1d2	-0.83572114
123	0x3e50b63f	0.20382021
124	0x40424006	3.0351577
125	0xbf111dc0	-0.5668602
126	0x3e6fc0c1	0.23413374
127	0x3fb07e98	1.3788633
128	0x3f520126	0.82033
129	0x3f8a200f	1.0791034
130	0x3f6ff42a	0.9373194
131	0x3f27df0f	0.65574735
132	0x3f9d6a55	1.2298075
133	0x3f080602	0.5313417
134	0xbea24e28	-0.31700253
135	0xc0116d31	-2.2722895
136	0x3fd34128	1.6504259
137	0xbf9ea97f	-1.2395476
138	0x3fa1fb18	1.2654753
139	0x400fb16b	2.2452037
140	0x3eb518de	0.35370535
141	0xbe2ab146	-0.16669187
142	0x3f9315e7	1.1491059
143	0x3e6f2017	0.23352085
144	0x3e8b964f	0.27263114
145	0x402237c3	2.5346534
146	0x3fa9eb98	1.3275023
147	0x3f9aa323	1.2081035
148	0xbdea2154	-0.11432138
149	0x3f3850fe	0.71998584
150	0xbe722954	-0.23648578
151	0x3fa3d0fc	1.2798152
152	0xbf296f24	-0.6618521
153	0x3f8edaf8	1.1160574
154	0xbd95eced	-0.07320581
155	0xbf675c0b	-0.9037482
156	0x3f87c949	1.0608302
157	0x3f5e76cf	0.8690004
158	0x3f21c08b	0.6318442
159	0x3eb86847	0.36017057
160	0x3fb6b4b6	1.4273899
161	0x3f2f974f	0.68590254
162	0xbeb4152b	-0.351724
163	0xbf5b1927	-0.85585254
164	0x3fe12e46	1.7592247
165	0xbf441a47	-0.76602596
166	0xbf189edd	-0.59617406
167	0xc0377d7e	-2.8670344
168	0xbeea6d7a	-0.4578665
169	0xbcb77937	-0.022396667
170	0x3efc49f9	0.49275187
171	0x3d743f7c	0.059630856
172	0xbf8dd629	-1.1080981
173	0x3f4d784e	0.80261695
174	0x3f98d277	1.1939229
175	0x3e988f2c	0.2979673
176	0xc04d5258	-3.2081509
177	0x40085f20	2.130806
178	0xbe94c5af	-0.2905707
179	0xbe956ed8	-0.2918613
180	0xbe03223f	-0.12806033
181	0xbf69bdc5	-0.9130519
182	0xbe35bb67	-0.1774727
183	0xbf986871	-1.1906873
184	0xbea5ac7a	-0.32358152
185	0x3edaf702	0.42766577
186	0xbf009552	-0.50227845
187	0x3dfd5ddd	0.123714186
188	0xbfb4d23f	-1.4126662
189	0xbf65e522	-0.89802754
190	0xbf9fca3c	-1.2483592
191	0x3fa86b28	1.3157701
192	0x3f459458	0.7717948
193	0xbf84dc9b	-1.0379823
194	0xbfc33076	-1.5249164
195	0xbfba6f4e	-1.4565217
196	0x3dc3d7e8	0.09562665
197	0x3d47887b	0.048714142
198	0xbf8a5362	-1.0806696
199	0xbdaba1f0	-0.083804965
200	0xbedf9dab	-0.4367498
201	0x3ff1cbf4	1.8890367
202	0x3eeef6bb	0.46672615
203	0xc04030f8	-3.0029888
204	0x3f1230e0	0.5710583
205	0x3fa121de	1.258846
206	0xbe31ae3c	-0.17351621
207	0xc0067f94	-2.1015368
208	0x3ee9adad	0.45640317
209	0xbe81da9b	-0.25362095
210	0x3ef56d21	0.4793482
211	0xbeb102fb	-0.34572586
212	0x3fa88b00	1.316742
213	0x3f25fb5a	0.6483666
214	0xbf7cb131	-0.9870787
215	0x3f275417	0.65362686
216	0xbf8624ad	-1.0479943
217	0xbe12bf11	-0.14330699
218	0xbf31311b	-0.69215554
219	0xbf3b85a4	-0.73250794
220	0x3f9e044f	1.2345065
221	0x3fdad1c4	1.7095265
222	0x3f1359b0	0.5755873
223	0x3f669b88	0.9008107
224	0x3fc2ec1f	1.5228308
225	0xbf5fa597	-0.87362045
226	0xbfbe010f	-1.4844073
227	0x3d91baac	0.07115683
228	0xbf1ce53c	-0.61287284
229	0x3f30d9ba	0.69082224
230	0x3f6452de	0.89188945
231	0x402afea7	2.6717927
232	0xbfbb1d4f	-1.4618319
233	0x3faae752	1.3351843
234	0xbf85101a	-1.0395539
235	0xbf8aa983	-1.0832981
236	0xbf25f7aa	-0.6483103
237	0xbfaf9f10	-1.3720417
238	0x3f5cc146	0.8623241
239	0x3f9fc9fb	1.2483515
240	0x3dfb4dc7	0.12270694
241	0xbf21e80a	-0.6324469
242	0xbf90aee9	-1.1303378
243	0xbf212cca	-0.6295897
244	0xbe7ee300	-0.24891281
245	0x3f19af0c	0.60032725
246	0x3fd12667	1.6339844
247	0x3ffdd62a	1.9830983
248	0x3f87a879	1.0598289
249	0x3e7d8a26	0.2475973
250	0xbf8ebf98	-1.115222
251	0x3fc71ebb	1.5556253
252	0x3f83feb1	1.0312101
253	0x3f81f7da	1.0153763
254	0x3f536849	0.82581
255	0x3e213a49	0.1574489

rnn.weight_ih_l0 f4 [96, 32]
0	0xbe39ba05	-0.18137367
1	0xbe0086de	-0.12551448
2	0x3e3ca323	0.18421607
3	0x3ea87496	0.32901448
4	0x3db3479a	0.08753891
5	0xbe155458	-0.14582956
6	0xbe811ce0	-0.25217342
7	0x3d9d5d92	0.07683863
8	0x3e0a6331	0.13514401
9	0xbe130e9f	-0.14361046
10	0x3da98b6e	0.08278547
11	0xbd1387fc	-0.036018357
12	0xbe0f0b91	-0.13969256
13	0xbf15c7c9	-0.5850797
14	0xbd721a71	-0.059107248
15	0xbdef27ed	-0.11677537
16	0xbdeb8e46	-0.11501746
17	0x3de6f4a4	0.1127713
18	0xbe3e6b2a	-0.18595567
19	0xbd269228	-0.04066673
20	0xbdaa87a9	-0.08326656
21	0x3e4a0dc3	0.19731812
22	0xbe1c3377	-0.15254007
23	0xbe891603	-0.26774606
24	0x3e28f609	0.16500105
25	0xbdaa0921	-0.083025225
26	0xbe1fa4bc	-0.15590185
27	0xbe232d73	-0.15935306
28	0xbe8242a6	-0.25441474
29	0x3d9c320b	0.076267324
30	0x3e749f89	0.23888983
31	0x3d8a7457	0.06760471
32	0x3da8fbf0	0.08251178
33	0x3eb88271	0.3603702
34	0x3e4150ad	0.18878432
35	0x3e3193d1	0.17341544
36	0xbdaf315c	-0.085543364
37	0xbb9d4f14	-0.0048006866
38	0x3d3b9f58	0.04580626
39	0x3e7c514c	0.24640387
40	0x3d0a656b	0.033788126
41	0xbdae1af3	-0.08501234
42	0x3cce30cf	0.025169758
43	0x3c9bb661	0.019007863
44	0x3e274f10	0.16338754
45	0xbda27ea6	-0.079343125
46	0xbe203df8	-0.15648639
47	0xbeaaed3c	-0.3338412
48	0xbe5ec3a7	-0.21754323
49	0xbe488e83	-0.19585614
50	0x3dfaba67	0.12242585
51	0xbe1ff752	-0.15621689
52	0xbdcca5ea	-0.09992583
53	0x3e5180d4	0.204593
54	0x3d7cc1be	0.061708204
55	0x3e1990e1	0.14996673
56	0x3e157daf	0.14598726
57	0x3d1e2104	0.038605705
58	0xbed94146	-0.42432612
59	0xbea1567a	-0.3151129
60	0xbeae9fc3	-0.34106264
61	0xbc829d97	-0.015944285
62	0x3e3619f7	0.17783342
63	0x3e8ada76	0.27119797
64	0xbc822c89	-0.015890377
65	0xbe1debc9	-0.15421976
66	0x3db3d21b	0.08780309
67	0x3ea916c9	0.33025196
68	0x3e419e42	0.18908027
69	0x3e4971f3	0.19672374
70	0xbe7bfc91	-0.24608065
71	0x3bc80db9	0.0061051515
72	0xbda65f29	-0.08123619
73	0xba459eff	-0.0007538646
74	0x3ec0201b	0.37524495
75	0x3e2d2252	0.16907623
76	0xbc51e969	-0.012811997
77	0xbdf720c0	-0.120667934
78	0x3df5af56	0.11996333
79	0xbd9d8315	-0.076910175
80	0x3d6d2c46	0.05790355
81	0x3e155c9f	0.14586113
82	0x3c249980	0.010046363
83	0x3db34649	0.0875364
84	0x3e305732	0.17220762
85	0x3eb24bff	0.34823605
86	0xbd6e496b	-0.058175486
87	0x3ebea0c8	0.3723204
88	0xbd1d2baa	-0.03837172
89	0xbd76fd03	-0.060299885
90	0x3e8eff92	0.2792936
91	0xbe64156e	-0.222738
92	0xbe98e9ac	-0.29865777
93	0x3dd24f9c	0.102690905
94	0x3e685684	0.22689253
95	0x3e194a52	0.14969757
96	0x3e6388c0	0.22220135
97	0x3d459ebd	0.048247088
98	0x3d3b32e3	0.045702826
99	0x3bb66ea0	0.0055673867
100	0x3e9bbcec	0.30417573
101	0x3d9b1086	0.07571511
102	0x3d47c23a	0.048769213
103	0x3e27fe54	0.16405612
104	0xbcc09aa4	-0.023511238
105	0xbe00457a	-0.12526503
106	0xbc2d6ec3	-0.01058549
107	0xbd301bbf	-0.04299521
108	0xbd286233	-0.041109275
109	0x3d35d7a0	0.04439509
110	0xbe04c7ce	-0.12966844
111	0xbe2ed2e2	-0.17072633
112	0xbe39ad25	-0.18132456
113	0x3ebb196b	0.3654283
114	0x3d25da39	0.040491316
115	0xbeab0239	-0.33400133
116	0x3e43dc5d	0.1912703
117	0xbd0b5096	-0.0340124
118	0xbd7277f6	-0.059196435
119	0x3db4edf6	0.0883445
120	0x3c26497d	0.010149357
121	0xbc881af0	-0.016614407
122	0x3d35cad8	0.0443829
123	0xbe6b6109	-0.22986235
124	0xbe3ff564	-0.18745953
125	0xbd9d93ff	-0.07694244
126	0xbc8c00d0	-0.017090231
127	0xbcebaff1	-0.028770419
128	0xbe3e5230	-0.1858604
129	0xbe52ad0a	-0.20573822
130	0x3d17471a	0.036933042
131	0x3cc260e5	0.023727844
132	0x3c70ba2e	0.014692826
133	0x3b161f60	0.0022906885
134	0x3dad5f18	0.08465403
135	0xbd79f02b	-0.061020058
136	0x3ec77907	0.38959524
137	0xbdab5bd8	-0.08367127
138	0xbe075e83	-0.13219647
139	0xbeda804b	-0.42676005
140	0xbeb0508c	-0.34436452
141	0x3d88f4b3	0.06687298
142	0x3e37939f	0.17927407
143	0xbe2d2752	-0.16909531
144	0x3ddbe97b	0.10737892
145	0xbe21c1a5	-0.15796526
146	0xbd6577a8	-0.056022316
147	0x3e24807c	0.16064638
148	0xbe8c3259	-0.27382162
149	0xbe9b45d7	-0.3032672
150	0xbe11ff9e	-0.14257666
151	0xbe644715	-0.2229274
152	0x3d4ed6f0	0.05049795
153	0x3d3eb9f4	0.046564057
154	0xbe709486	-0.23494157
155	0xbe47eacc	-0.19523162
156	0xbe86a5c1	-0.26298335
157	0xbd1e494e	-0.038644128
158	0xbd0b05a7	-0.033940937
159	0x3de50d67	0.11184197
160	0xbcf7a77e	-0.030231234
161	0x3db7dd6e	0.08977781
162	0x3e10f676	0.14156517
163	0x3e26df7b	0.16296189
164	0x3e4b9d26	0.19884166
165	0x3d75ef2a	0.060042538
166	0xbe51e391	-0.20496966
167	0x3e5acd25	0.21367319
168	0x3ce85d9f	0.028364955
169	0xbdfa0285	-0.12207512
170	0x3e06899c	0.13138431
171	0x3d262c45	0.040569562
172	0xbd03b022	-0.032150395
173	0xbe87f0da	-0.26550943
174	0xbe4c7028	-0.19964659
175	0x3d924c54	0.07143465
176	0xbe52aace	-0.2057297
177	0x3d9711ee	0.07376467
178	0xbe98f8cc	-0.29877317
179	0x3bdb1ab3	0.0066865324
180	0x3e0c2e75	0.13689597
181	0x3e43e4f3	0.19130306
182	0x3c09ea24	0.00841764
183	0x3e129585	0.1431485
184	0xbd7d1c8a	-0.061794795
185	0x3dd28e7f	0.10281085
186	0xbe1242cf	-0.14283298
187	0xbc6ca4e9	-0.0144436145
188	0xbcb6b3f0	-0.022302598
189	0x3d043852	0.032280274
190	0x3daaead6	0.08345573
191	0x3e8455ed	0.25846806
192	0x3eb718d5	0.35761133
193	0x3ddd899c	0.108172625
194	0xbdf07168	-0.117403805
195	0x3ddd3850	0.108017564
196	0x3e26356d	0.16231318
197	0x3de1045b	0.10987159
198	0xbdac8246	-0.08423285
199	0x3e5140fa	0.20434943
200	0xbe48e50c	-0.19618624
201	0xbccd3bc4	-0.025052913
202	0x3d2d687f	0.042335983
203	0xbea0fa3c	-0.31440914
204	0xbd9813db	-0.07425662
205	0xbdd0d121	-0.10196138
206	0xbe038727	-0.12844525
207	0x3cba751c	0.02276092
208	0xbe524b9e	-0.20536658
209	0x3d010c9e	0.031506173
210	0xbe79508d	-0.24347134
211	0xbec2dc48	-0.38058686
212	0x3dbe4941	0.09291316
213	0x3e0b6320	0.13612032
214	0xbe8db04d	-0.2767357
215	0xbe2dcf39	-0.1697358
216	0xbe5cf03f	-0.21576022
217	0x3cf75f34	0.030196764
218	0x3d9067af	0.07051026
219	0xbd2bd83d	-0.041954268
220	0xbe4d368a	-0.20040336
221	0xbe0c829b	-0.13721697
222	0x3e01efcd	0.12689133
223	0xbd0a3d4a	-0.033749856
224	0xbe10b920	-0.1413312
225	0xbd5e1146	-0.054215692
226	0x3e3ffb66	0.18748245
227	0x3e35d11a	0.17755547
228	0xbd9fc5d1	-0.07801402
229	0xbd7734c9	-0.060353074
230	0xbe846ce5	-0.2586433
231	0x3e573f5a	0.2102026
232	0x3d135d10	0.035977423
233	0x3c90eaef	0.01769015
234	0x3be28d29	0.0069138003
235	0x3dd89a49	0.105763026
236	0xbca9989c	-0.020702653
237	0xbe55f4a7	-0.20894109
238	0x3b2f7ab6	0.0026776022
239	0xbb9c66b2	-0.0047729844
240	0x3d1ebb3d	0.038752783
241	0xbde3cad4	-0.11122671
242	0xbe4ab2e9	-0.19794811
243	0xbdae19eb	-0.08501037
244	0x3e1662c9	0.14686121
245	0x3c6fc19a	0.014633561
246	0x3d6c57a2	0.05770076
247	0x3db08f80	0.086211205
248	0x3d190edf	0.037367698
249	0xbd1f07f5	-0.038825948
250	0xbe2234c1	-0.15840437
251	0xbd8598e6	-0.06523304
252	0xbeae7d6e	-0.3408007
253	0xbe056ff3	-0.13030986
254	0x3db0aca5	0.08626679
255	0x3e038b9b	0.12846224

rnn.weight_hh_l0 f4 [96, 32]
0	0xbd8d5c80	-0.069024086
1	0xbd353edc	-0.0442494
2	0x3ed64185	0.41846862
3	0xbf0025b0	-0.50057507
4	0x3f321863	0.6956846
5	0x3d9dcdf2	0.077052966
6	0xbe4b9e6c	-0.19884652
7	0x3e4ab83d	0.19796844
8	0x3cd52caa	0.026022274
9	0x3f024ff3	0.5090324
10	0x3eace75a	0.33770257
11	0x3e93c9d8	0.28864932
12	0x3e7d8f46	0.24761686
13	0xbe7baa35	-0.24576648
14	0xbe1fc82d	-0.15603705
15	0xbf11cfee	-0.569579
16	0xbc803feb	-0.015655478
17	0xbddfce88	-0.109280646
18	0xbe04bd62	-0.12962869
19	0x3e3bdb9e	0.18345496
20	0x3d9b2937	0.075762205
21	0x3e70af6e	0.23504421
22	0xbd8b17d8	-0.06791657
23	0x3e18e5d6	0.14931425
24	0x3e29dbd3	0.16587763
25	0x3d0357f2	0.032066293
26	0x3e453631	0.19258954
27	0x3db27e32	0.08715476
28	0x3ce4b79a	0.02791958
29	0x3da2d3d0	0.07950556
30	0x3e237d9e	0.15965888
31	0xbdd2f391	-0.10300363
32	0xbd79d9fb	-0.060998898
33	0x3e07a692	0.13247135
34	0x3e1a4e57	0.15068947
35	0x3c848419	0.01617627
36	0x3e85ca99	0.26131132
37	0xbe05fef2	-0.13085535
38	0xbe94ecc5	-0.2908689
39	0x3e530c5c	0.20610183
40	0x3e687f41	0.22704794
41	0x3d63818c	0.055543467
42	0xbd166ecb	-0.036726754
43	0xbe1dbcc5	-0.15404041
44	0x3e6b3c84	0.22972304
45	0xbeaf8b1b	-0.34285817
46	0x3de2fe5e	0.11083673
47	0xbe8b50a1	-0.27209952
48	0x3d32734b	0.043566983
49	0xbbef7345	-0.0073074424
50	0xbe1e4771	-0.1545694
51	0x3c85652e	0.016283598
52	0x3d8a9e6d	0.067684986
53	0x3dd6bac8	0.104848444
54	0xbde9bb62	-0.114126936
55	0x3d77a479	0.060459588
56	0xbde721d6	-0.112857506
57	0x3e9d4da5	0.307233
58	0x3d081a19	0.033228014
59	0x3df9b9ee	0.121936664
60	0xbe7a29e5	-0.24430044
61	0xbe4ef8eb	-0.20212142
62	0x3e73a32a	0.23792711
63	0x3e02e159	0.12781276
64	0xbe839559	-0.2569988
65	0x3ea71f7a	0.32641202
66	0x3de70b4a	0.1128145
67	0xbe480235	-0.19532092
68	0xbcc7d3fb	-0.024393072
69	0xbd1750be	-0.036942236
70	0xbe1a1f78	-0.15051067
71	0x3db4a5ac	0.08820662
72	0x3eaf40ac	0.34229028
73	0xbeb73faf	-0.35790774
74	0x3dc130a7	0.09433108
75	0x3e4019e7	0.18759881
76	0x3d9660e8	0.07342702
77	0x3cfc093b	0.03076612
78	0xbd4fe952	-0.05075962
79	0xbcf4d02f	-0.029884426
80	0xbf17d45b	-0.59308404
81	0x3df3ba49	0.119007654
82	0xbe1593c7	-0.14607154
83	0x3ef227dc	0.47296035
84	0x3e8f0c58	0.27939105
85	0xbdb16614	-0.08662048
86	0x3dd64ef9	0.104642816
87	0x3d74b872	0.059746213
88	0xbeb85c88	-0.36008096
89	0xbdc941ab	-0.09826978
90	0xbf00a24c	-0.50247645
91	0x3f262308	0.64897203
92	0xbe001e18	-0.1251148
93	0xbe366f3d	-0.17815872
94	0x3ea06594	0.31327498
95	0x3d606c24	0.05479063
96	0xbdee871f	-0.11646866
97	0x3d7c9af9	0.06167123
98	0x3e811417	0.2521064
99	0xbe6b9170	-0.23004699
100	0x3e7594cb	0.23982541
101	0xbe277c12	-0.16355923
102	0x3d7df64d	0.06200247
103	0xbd06da21	-0.032922868
104	0x3dc30bca	0.09523733
105	0x3ec3944e	0.38199085
106	0x3ea08ed2	0.31358963
107	0x3e7a1844	0.24423319
108	0x3e703bed	0.2346036
109	0xbb349b14	-0.0027558254
110	0x3e3b617a	0.18298903
111	0xbee4e3d7	-0.44705078
112	0x3e65de0f	0.2244799
113	0xbdebe0db	-0.11517497
114	0x3e1b4aab	0.15165202
115	0x3f2092f6	0.62724245
116	0x3e48f5a2	0.19624951
117	0x3e797091	0.24359347
118	0x3ec9e59e	0.39432997
119	0x3e7e193b	0.24814312
120	0x3d59ad6e	0.05314391
121	0x3d840e1a	0.06448002
122	0xbd1d5f35	-0.038420875
123	0x3eef8eb0	0.4678855
124	0x3d8ae2f2	0.06781568
125	0x3e220b79	0.15824689
126	0x3e6ee2eb	0.2332875
127	0xbe637fc8	-0.22216713
128	0xbdcc552a	-0.09977181
129	0xbd3255e5	-0.043538947
130	0x3e50014c	0.20312995
131	0xbd890ec6	-0.06692271
132	0xbe4dc4a3	-0.20094542
133	0xbd79b25d	-0.060961116
134	0xbd4ad7c4	-0.049522176
135	0x3da1915e	0.07889055
136	0xbc2ce238	-0.010551982
137	0x3e7d781a	0.24752846
138	0xbd6c5c1d	-0.057705034
139	0x3e98eac3	0.2986661
140	0x3c513ff3	0.012771594
141	0xbe61219d	-0.21985479
142	0xbdad6080	-0.084656715
143	0x3f099624	0.5374472
144	0x3ee6ac2b	0.4505323
145	0x3e7eacfd	0.24870677
146	0xbe08a4a9	-0.13344063
147	0xbe892b89	-0.26791027
148	0x3d681273	0.05665822
149	0xbf060e64	-0.5236571
150	0x3d7025ea	0.058629908
151	0xbdb08c8e	-0.08620559
152	0x3dfad81a	0.12248249
153	0x3e5003db	0.2031397
154	0x3d58b2cb	0.052904885
155	0xbe883c00	-0.26608276
156	0x3f276794	0.6539242
157	0xbe100683	-0.14064984
158	0x3d6fc628	0.058538586
159	0x3e7334e7	0.2375065
160	0xbdd528f7	-0.10408204
161	0x3d5043b7	0.050845828
162	0x3db6e5a9	0.08930523
163	0xbed30f53	-0.4122263
164	0x3e8e19ad	0.27753964
165	0xbe3d8920	-0.1850934
166	0xbe5a1264	-0.21296078
167	0x3e2b0905	0.1670266
168	0x3ed5fc66	0.41794127
169	0x3d514f15	0.05110081
170	0x3e61246f	0.21986555
171	0xbd2d38c8	-0.04229048
172	0x3dc8694a	0.09785707
173	0xbe5aaa3d	-0.21354003
174	0xbec15045	-0.37756553
175	0xbe51c77e	-0.20486256
176	0x3dc8ff74	0.09814349
177	0x3c3b523a	0.011433179
178	0xbee362fd	-0.4441146
179	0x3e1aac7f	0.15104865
180	0x3cfe7037	0.031059368
181	0x3d463cf7	0.048397984
182	0xbd4ad656	-0.049520813
183	0x3e9c8f47	0.30578062
184	0x3d56b55c	0.05241905
185	0x3e2fc7b5	0.17166026
186	0xbe375307	-0.17902766
187	0x3ed16131	0.40894464
188	0x3e009862	0.1255813
189	0xbda05dd4	-0.07830396
190	0x3e85b954	0.26117957
191	0x3ca3c32b	0.019990524
192	0xbcd02b54	-0.025411285
193	0x3db39c9e	0.08770107
194	0x3e1be90b	0.15225618
195	0xbe8fa28d	-0.28053704
196	0x3e13f392	0.14448383
197	0xbe4713d0	-0.19441152
198	0xbc0e4ea6	-0.008685743
199	0xbe017d2c	-0.12645406
200	0x3d40ad51	0.047040287
201	0x3ee76370	0.45193052
202	0xbdd4337c	-0.10361382
203	0x3e4b5ad5	0.19858868
204	0x3d5adf9a	0.0534359
205	0xbdb2c04c	-0.08728084
206	0x3c6042e3	0.013687822
207	0xbe8c6479	-0.27420405
208	0x3ea2bbd2	0.3178392
209	0xbda7f92c	-0.08201823
210	0xbeb5a723	-0.35479078
211	0x3f4e345d	0.8054865
212	0x3cdf76f5	0.027278403
213	0x3e53f38a	0.20698372
214	0xbddfd539	-0.10929341
215	0x3e2cae0d	0.1686327
216	0x3e55c907	0.20877467
217	0x3e0ceebc	0.13762945
218	0x3b13b844	0.002254025
219	0x3eaef951	0.34174588
220	0x3e020ab4	0.12699395
221	0xbb415cb9	-0.002950473
222	0xbd97baad	-0.074086525
223	0x3a227d11	0.0006198446
224	0x3e3de1b7	0.18543135
225	0x3d1214c3	0.03566433
226	0x3e3f543d	0.18684478
227	0xbe6976aa	-0.22799173
228	0xbbc3daa1	-0.0059769903
229	0x3d0ab304	0.03386213
230	0x3ce0ad28	0.027426317
231	0xbd189fde	-0.037261836
232	0x3e2aec43	0.16691689
233	0x3dd75cb9	0.10515732
234	0x3ec2af03	0.38024148
235	0xbdc311ed	-0.095249034
236	0x3bd42b09	0.0064748568
237	0xbe75f3e1	-0.24018814
238	0x3d0a33b3	0.03374071
239	0xbe322988	-0.17398655
240	0xbe6d1d3d	-0.23155685
241	0xbe728d28	-0.2368666
242	0x3e2e7921	0.17038395
243	0x3e8f3520	0.2797022
244	0x3e97fc89	0.29684857
245	0x3ea04d4b	0.3130897
246	0xbdafca1c	-0.08583471
247	0x3ebdd1a3	0.37074003
248	0x3e3de81b	0.18545572
249	0x3e407e3d	0.18798156
250	0xbdf014a3	-0.11722686
251	0x3d641b5d	0.05569016
252	0xbe21cf8a	-0.15801826
253	0x3e586e8c	0.2113592
254	0x3e83238c	0.25613058
255	0xbe31550d	-0.173176

rnn.bias_ih_l0 f4 [96]
0	0x3d9b8235	0.075931944
1	0x3e0c661f	0.13710831
2	0x3e40d954	0.18832904
3	0x3e52c9b1	0.20584752
4	0x3e444f8b	0.19170968
5	0x3e696162	0.22791055
6	0x3e4c3acb	0.19944303
7	0x3ea50b1b	0.32235035
8	0x3e130a2f	0.14359353
9	0x3dbaffdd	0.09130833
10	0x3e85ceb6	0.2613427
11	0x3cb50847	0.022098674
12	0xbd220389	-0.039554153
13	0x3c98cc3d	0.018652076
14	0xbd6e7799	-0.058219526
15	0x3dd1e89d	0.102494456
16	0x3e100b80	0.14066887
17	0x3e154052	0.14575318
18	0x3e1b0285	0.1513768
19	0x3eb1fff5	0.34765592
20	0x3e399b18	0.1812557
21	0x3de64b47	0.11244827
22	0xbcf0eadf	-0.02940887
23	0x3d9c6207	0.07635885
24	0x3e150140	0.14551258
25	0xbd5bc2d5	-0.053652603
26	0x3e5edf6e	0.21764919
27	0xbdda49b3	-0.10658588
28	0x3e2211ce	0.15827104
29	0x3d74deb7	0.05978271
30	0x3e6cc52b	0.23122089
31	0x3ea700d4	0.3261782
32	0xbedd6e70	-0.4324832
33	0xbe672ce0	-0.22575712
34	0xbe277403	-0.16352849
35	0xbcce896f	-0.025212018
36	0xbeac397f	-0.33637616
37	0xbe7ed903	-0.24887471
38	0xbe869d40	-0.26291847
39	0xbd927750	-0.07151663
40	0xbe5389a9	-0.20657982
41	0xbda17e8c	-0.07885465
42	0xbd620e9e	-0.05518972
43	0xbe0b1b11	-0.13584544
44	0xbe4501f1	-0.19239022
45	0xbe25f6d3	-0.16207437
46	0xbe44bf97	-0.1921371
47	0x3e9ea5e8	0.3098595
48	0xbcd44db2	-0.025915954
49	0xbea20b03	-0.31649026
50	0xbe45eb50	-0.19328046
51	0x3e981087	0.2970011
52	0xbe1efbf8	-0.15525806
53	0xbe9c6389	-0.3054469
54	0x3e941ba5	0.2892734
55	0xbefe95b0	-0.49723577
56	0xbda3a968	-0.07991296
57	0x3e0405a0	0.12892771
58	0xbe9517de	-0.29119772
59	0x3e39f470	0.18159652
60	0x3dff30ce	0.12460481
61	0xbe95b7d0	-0.292418
62	0x3d50a3ee	0.050937586
63	0xbe80692b	-0.25080237
64	0x3e2ddf5f	0.1697974
65	0x3db55563	0.08854177
66	0x3e2e49a4	0.17020279
67	0xbdd5789c	-0.10423395
68	0xbe8cb1ed	-0.27479497
69	0xbe125fa4	-0.14294297
70	0xbdc5deb1	-0.09661616
71	0x3b634882	0.003468067
72	0x3d90f120	0.07077241
73	0xbdbb15c6	-0.09135012
74	0x3e5e8d98	0.21733701
75	0xbe1a89ee	-0.15091679
76	0x3c7187b0	0.014741823
77	0xbdfa219c	-0.12213442
78	0xbd8e374f	-0.06944143
79	0xbda3228a	-0.07965572
80	0x3dd54c82	0.10414983
81	0xbcab533d	-0.020913715
82	0xbe310f16	-0.17290911
83	0x3dba9752	0.09110893
84	0x3db99a14	0.09062591
85	0xbc2e4d4c	-0.010638546
86	0xbe2649e3	-0.16239123
87	0x3ccaa11f	0.024735032
88	0xbe0e46db	-0.13894217
89	0x3d7be235	0.061495025
90	0xbaef48c1	-0.0018255935
91	0x3e0b94be	0.1363096
92	0xbc9411af	-0.018074838
93	0x3ded4bab	0.11586698
94	0x3e0c369c	0.13692707
95	0xbe1ade04	-0.15123755

rnn.bias_hh_l0 f4 [96]
0	0x3dadae9a	0.08480568
1	0x3da6870b	0.08131226
2	0x3e021831	0.12704541
3	0x3e0251b0	0.12726474
4	0x3dc3eeb7	0.095670156
5	0x3d4ac392	0.049502917
6	0x3e4562a3	0.19275908
7	0x3e3e3472	0.18574694
8	0x3cc977af	0.024593202
9	0x3dc9388a	0.09825237
10	0x3e5ac0c5	0.21362598
11	0x3d6f2009	0.05838016
12	0xbdb4e8ab	-0.088334404
13	0x3e90b612	0.2826391
14	0x3c8643e6	0.016389798
15	0xb72fd6b8	-1.0480806e-05
16	0x3d29d730	0.041464984
17	0x3e04bd8d	0.12962933
18	0x3e7733a7	0.24140798
19	0x3e0f1ecc	0.13976592
20	0xbc3e6b97	-0.011622331
21	0x3de26343	0.11054089
22	0x3db9eb03	0.09078028
23	0x3e115815	0.14193757
24	0x3e249dc2	0.16075805
25	0x3ce9e368	0.028550819
26	0x3e302525	0.1720167
27	0x3d447517	0.047963228
28	0x3e41fb6e	0.18943569
29	0xbc8e9a5f	-0.017407594
30	0x3cf12901	0.029438497
31	0x3e984618	0.29740977
32	0xbecba082	-0.39770895
33	0xbf00c180	-0.5029526
34	0xbe8317fa	-0.2560423
35	0xbc6f4423	-0.014603647
36	0xbe262e2d	-0.16228552
37	0xbe80595f	-0.25068185
38	0xbe2aaf4c	-0.16668433
39	0xbe36e14c	-0.17859381
40	0xbe94a311	-0.2903066
41	0xbd67ec5c	-0.056621894
42	0xbd19fa22	-0.03759206
43	0xbd9a4d5a	-0.07534285
44	0xbeb2267f	-0.34794995
45	0xbda4a678	-0.08039564
46	0xbcfb405f	-0.030670343
47	0x3e0607ae	0.13088867
48	0xbcf884f3	-0.030336833
49	0xbea0cfc3	-0.3140851
50	0xbe4b09ff	-0.19828032
51	0x3df592ea	0.11990912
52	0xbed1afae	-0.40954345
53	0xbefe9939	-0.49726275
54	0x3e097e22	0.13427022
55	0xbe98ffe5	-0.29882732
56	0xbd34d937	-0.044152465
57	0x3ddf99dc	0.10918018
58	0xbd2ead8f	-0.042645987
59	0x3e077313	0.13227491
60	0x3eaa5c5f	0.332736
61	0xbe7b41da	-0.24536839
62	0x3d98b840	0.07457018
63	0xbda75e05	-0.0817223
64	0x3ea18272	0.31544834
65	0x3ea80ccb	0.3282226
66	0xbe66a3ee	-0.22523472
67	0x3e5cae46	0.21550855
68	0x3dc8768a	0.097882345
69	0xbe804502	-0.2505265
70	0xbea7afb0	-0.32751226
71	0x3e90f4ea	0.28311855
72	0xbd19008c	-0.037354037
73	0x3ce21f06	0.027602684
74	0x3d76d93b	0.06026576
75	0xbe121c7a	-0.14268675
76	0x3e61262f	0.21987222
77	0x3d44588b	0.047936004
78	0x3e64850b	0.22316377
79	0x39ddf2d6	0.00042333332
80	0xbd6567d5	-0.056007225
81	0xbe35ed10	-0.17766213
82	0xbd9d0f7c	-0.07668969
83	0x3e1c2656	0.15248999
84	0x3e9781b1	0.29591134
85	0x3e51d8b6	0.20492825
86	0x3d948944	0.07252744
87	0x3e7175a6	0.23580036
88	0x3c3251ed	0.01088379
89	0x3d98faef	0.07469737
90	0x3d52b336	0.05144044
91	0x3cce20b4	0.025162078
92	0xbdcde785	-0.100539245
93	0xbd8e991e	-0.069627985
94	0x3e7ced88	0.24699986
95	0xbe9a995d	-0.30195132

fc.weight f4 [88, 32]
0	0xbeae6553	-0.3406168
1	0xbea24559	-0.31693533
2	0xbe919186	-0.28431338
3	0x3c0db0f6	0.008648148
4	0xbe5a4996	-0.21317133
5	0x3e8827d3	0.26592883
6	0x3e716ec5	0.23577411
7	0xbebcee8a	-0.3690074
8	0xbe9b62ac	-0.30348718
9	0xbd50e1e7	-0.050996687
10	0xbeffadf8	-0.49937415
11	0x3e8a3319	0.2699211
12	0xbdf22182	-0.11822797
13	0x3ef34661	0.47514632
14	0x3e3efe3d	0.18651672
15	0x3e8dde8f	0.2770886
16	0xbe081d7c	-0.13292497
17	0x3e6a847a	0.22902098
18	0xbb8a5b3d	-0.004222302
19	0xbe7ecc83	-0.24882703
20	0xbe943744	-0.28948414
21	0xbdd4d05a	-0.103913024
22	0x3f0b5c06	0.5443729
23	0xbf097004	-0.5368655
24	0xbe5a7174	-0.21332341
25	0xbf39ab37	-0.7252688
26	0x3ec01b33	0.3752075
27	0xbebb20d2	-0.36548477
28	0x3e383921	0.17990543
29	0x3ed575d1	0.4169145
30	0xbee64f3c	-0.44982326
31	0x3e8dfa57	0.27730057
32	0xbea18a25	-0.31550708
33	0xbe331160	-0.17487097
34	0xbe488073	-0.1958025
35	0xbd8858a3	-0.06657531
36	0xbeb56aa3	-0.3543292
37	0x3e2fb06c	0.17157143
38	0x3e5c48ff	0.21512221
39	0xbef4dcb6	-0.4782464
40	0xbe1921a0	-0.14954233
41	0xbc14b3e3	-0.009076091
42	0xbee9b5e5	-0.45646587
43	0x3e67f30d	0.2265131
44	0xbd3b09c9	-0.04566363
45	0x3ec925f3	0.39286765
46	0x3e0bf903	0.13669209
47	0x3e68d8c7	0.22738944
48	0x3c1d3d0e	0.009597076
49	0x3e592723	0.21206336
50	0x3d571b42	0.05251623
51	0xbe8abe6c	-0.27098405
52	0xbed23197	-0.4105346
53	0x3a7a82b0	0.0009556217
54	0x3ee6bf86	0.45067996
55	0xbea741d9	-0.32667425
56	0xbe4bc60a	-0.19899765
57	0xbf438f35	-0.7639039
58	0x3e8a1865	0.26971737
59	0xbec7fd38	-0.39060378
60	0x3d957640	0.07297945
61	0x3ed01d0a	0.40647155
62	0xbef5d7f0	-0.4801631
63	0x3e9badf3	0.3040615
64	0xbeac9d0b	-0.33713564
65	0xbe4ac1e1	-0.19800521
66	0xbe1f1f83	-0.15539365
67	0xbd27708f	-0.04087883
68	0xbe5a7519	-0.21333732
69	0x3e1d7646	0.15377149
70	0x3eb00b3a	0.34383565
71	0xbe5f8e7e	-0.218317
72	0xbe46d9d4	-0.19419032
73	0x3b8e1af0	0.0043367073
74	0xbe6fcd64	-0.23418194
75	0x3e3960b0	0.1810329
76	0xbe722d40	-0.23650074
77	0x3eec7b0a	0.4618762
78	0x3d9e2dc2	0.07723571
79	0x3e7c1d98	0.24620664
80	0xbde41ee5	-0.11138705
81	0x3e6658f6	0.22494873
82	0xbc667704	-0.0140664615
83	0xbe766f38	-0.24065864
84	0xbeb4496a	-0.3521226
85	0xbe05df1b	-0.13073389
86	0x3ed9031f	0.42385194
87	0xbf0d8146	-0.5527538
88	0xbdf5dd20	-0.12005067
89	0xbf35d1fe	-0.7102355
90	0x3ed92202	0.42408758
91	0xbe6d024f	-0.23145412
92	0x3e043e23	0.12914328
93	0x3e8f3b00	0.279747
94	0xbebeb993	-0.37250957
95	0x3ea7973a	0.32732564
96	0x3e919986	0.28437442
97	0x3e72fcc4	0.23729235
98	0xbec51c08	-0.3849795
99	0x3eb48700	0.35259247
100	0x3cbdfa8c	0.02319076
101	0xbe752392	-0.2393935
102	0xbe809b2e	-0.25118393
103	0x3e6a38f9	0.22873296
104	0x3eb0ac64	0.34506524
105	0xbed09d98	-0.40745234
106	0x3e3eb6e9	0.18624462
107	0xbe8ab28c	-0.27089345
108	0x3ec7fb10	0.39058733
109	0x3f67ad7c	0.9049909
110	0x3ef9f317	0.48818275
111	0xbe6d7ade	-0.23191401
112	0xbf06f00e	-0.52710044
113	0xbe9ed0f1	-0.31018785
114	0xbed9699d	-0.4246339
115	0x3dfd564d	0.12369976
116	0x3e882691	0.26591924
117	0xbed0e568	-0.40800023
118	0xbe334158	-0.17505395
119	0x3e307c8c	0.17235011
120	0xbeb2ec6a	-0.34945995
121	0xbf2c40a3	-0.6728613
122	0xbe8e502a	-0.27795535
123	0x3e8b5f4e	0.2722115
124	0xbe25bbfa	-0.16184989
125	0xbe85026f	-0.2597842
126	0x3e6952c9	0.22785486
127	0xbe8c27b5	-0.27374044
128	0xbefc39a9	-0.4926274
129	0xbedb7232	-0.42860562
130	0x3e8b9f21	0.27269843
131	0xbeb9eedf	-0.36315057
132	0x3dcda2e7	0.10040837
133	0x3ee5d1bb	0.44886574
134	0x3ec66880	0.38751602
135	0xbe205bc0	-0.1566
136	0x3de1c034	0.11022988
137	0x3e8d8498	0.27640224
138	0xbd783fa6	-0.060607575
139	0x3ecf71e5	0.40516582
140	0xbeb1e106	-0.34741992
141	0xbd60b294	-0.054857805
142	0xbe8a36a4	-0.26994812
143	0xbc2546b6	-0.01008766
144	0x3d84ebbb	0.064902745
145	0x3ead1446	0.3380453
146	0xbda4d258	-0.080479324
147	0xbdf5bf70	-0.119994044
148	0x3e012f3a	0.12615672
149	0xbdea3a5e	-0.11436914
150	0x3d4edae3	0.050501715
151	0xbc44f3d7	-0.012021027
152	0x3e7aee19	0.2450489
153	0x3dea48b3	0.114396475
154	0xbd2407e5	-0.04004659
155	0xbde9c045	-0.11413626
156	0xbd066e96	-0.032820307
157	0x3e2375ce	0.15962908
158	0xbe8c499a	-0.27399904
159	0x3ebfec2e	0.37484878
160	0x3e75dfa5	0.24011095
161	0x3e5bca13	0.21463804
162	0xbf0105ec	-0.5039966
163	0x3e819ad1	0.25313428
164	0xbe15b474	-0.14619619
165	0xbe770c05	-0.24125679
166	0xbe57f94c	-0.21091193
167	0x3e55671a	0.20840111
168	0x3ebf2943	0.37336168
169	0xbd5f57ef	-0.05452722
170	0x3e324d71	0.17412354
171	0xbe8888e3	-0.26666936
172	0x3e29137d	0.1651134
173	0xbe80826a	-0.25099498
174	0xbe93418c	-0.28760946
175	0xbdab7085	-0.08371071
176	0x3df54d7f	0.11977672
177	0xbe9f00b5	-0.31055227
178	0xbeec24d0	-0.46121836
179	0x3d4b26fb	0.04959772
180	0x3e421c45	0.18956096
181	0x3ed5d356	0.417628
182	0xbe25207e	-0.16125676
183	0x3e16dd21	0.14732791
184	0x3ca65e11	0.020308526
185	0x3e3e9b5f	0.18613957
186	0x3ad5276e	0.0016262361
187	0x3e5ba81f	0.21450852
188	0xbd0a3aec	-0.0337476
189	0xbdd7bb64	-0.10533789
190	0x3e497129	0.19672073
191	0xbe868143	-0.26270494
192	0x3e666552	0.22499588
193	0x3e57263e	0.21010682
194	0x3d9845d6	0.07435195
195	0x3e5d59f5	0.21616347
196	0xbbf51840	-0.0074796975
197	0xbe5c7c2d	-0.21531744
198	0xbe57b1b1	-0.21063878
199	0x3e3d4b2d	0.18485709
200	0x3ce326e8	0.027728513
201	0xbe3a1444	-0.18171793
202	0x3e2dc176	0.1696833
203	0xbe7ab5f8	-0.24483478
204	0xbd1bd6c4	-0.038046613
205	0xbe46aa4f	-0.19400905
206	0x3e5b51e3	0.21417956
207	0xbe46c89c	-0.19412464
208	0x3e10f057	0.14154182
209	0xbe9417f2	-0.2892452
210	0x3e4027ef	0.18765233
211	0x3dbddbc4	0.092704326
212	0xbdb5c6fd	-0.08875845
213	0xbed837a3	-0.42229947
214	0xbe162cc7	-0.14665519
215	0x3e0ea7b9	0.13931169
216	0xbd399cdf	-0.04531562
217	0x3e31d05c	0.17364639
218	0xbead9e2c	-0.33909738
219	0x3e13d447	0.14436446
220	0xbc61ddd3	-0.013785797
221	0xbe51b0cb	-0.20477597
222	0x3e2dbc95	0.1696647
223	0xbe71874f	-0.23586772
224	0x3e85401b	0.2602547
225	0x3e5c4666	0.2151123
226	0xbf00cfde	-0.5031718
227	0x3eba27f8	0.3635862
228	0xbd29d983	-0.0414672
229	0xbe6dad16	-0.23210558
230	0xbe69ae0c	-0.228203
231	0x3e5a341a	0.21308938
232	0x3ec45fee	0.3835444
233	0x3da12245	0.078678645
234	0x3e28711d	0.164494
235	0xbe851cb0	-0.2599845
236	0x3e990ede	0.29894155
237	0xbe775c07	-0.241562
238	0xbe916257	-0.2839534
239	0xbe48c601	-0.19606782
240	0x3e27c2b9	0.16382875
241	0xbe9c3291	-0.3050733
242	0xbeea673a	-0.4578188
243	0x3d9ee19f	0.077578776
244	0x3e0e16ec	0.13875932
245	0x3ef0550d	0.4693989
246	0xbe3c65bc	-0.18398184
247	0x3e4afa92	0.19822147
248	0x3e2e7e70	0.1704042
249	0x3e803438	0.2503984
250	0x3e986887	0.29767248
251	0x3c7089ca	0.014681289
252	0xbe21a858	-0.15786874
253	0xbe384e65	-0.17998655
254	0x3e3b5b67	0.18296586
255	0xbe86a78d	-0.26299706

fc.bias f4 [88]
0	0xbf02535a	-0.50908434
1	0xbeba9c42	-0.3644734
2	0xbefc5248	-0.49281526
3	0x3eaecb72	0.3413959
4	0x3d3b9a77	0.045801606
5	0x3eb8310e	0.35974926
6	0x3de77935	0.11302415
7	0x3e980622	0.2969218
8	0x3e5049f7	0.20340715
9	0xbc39b400	-0.011334419
10	0xbe76b6b1	-0.24093129
11	0x3ddf6298	0.10907477
12	0xbe1bba5e	-0.15207812
13	0xbd61bad7	-0.055109825
14	0x3e3ebd02	0.18626788
15	0x3ec48bf4	0.38388026
16	0xbcd50a10	-0.026005775
17	0x3dd7f9f1	0.105457194
18	0x3ed3f774	0.4139973
19	0xbe28180b	-0.16415422
20	0xbe0fe482	-0.14052013
21	0xbcb48417	-0.022035642
22	0xbde89382	-0.1135626
23	0x3ea289ef	0.3174586
24	0xbdbc4c45	-0.09194235
25	0x3eb2ccce	0.3492188
26	0xbe5ec9ea	-0.21756712
27	0x3e9c8305	0.3056871
28	0xbe1f7e93	-0.15575628
29	0xbdbe78bb	-0.09300371
30	0x3da6cb3c	0.08144233
31	0x3e945a36	0.28975075
32	0x3ddaae48	0.10677773
33	0xbe5d124a	-0.21589008
34	0xbe923803	-0.2855836
35	0xbeb8f5d2	-0.36125046
36	0xbeb96928	-0.3621304
37	0xbe0d2e9a	-0.13787308
38	0xbe6de102	-0.23230365
39	0xbeecf78b	-0.4628261
40	0xbeaa17fe	-0.3322143
41	0xbe8d62a1	-0.2761431
42	0xbe1125c4	-0.14174563
43	0xbd7a5946	-0.061120294
44	0xbe949b18	-0.29024577
45	0xbea95712	-0.33074242
46	0xbe2b807f	-0.16748236
47	0xbe6f00e4	-0.23340183
48	0xbeba5355	-0.36391702
49	0xbcbb7777	-0.022884114
50	0xbe2cc7e5	-0.16873129
51	0xbed48e33	-0.4151474
52	0xbea34456	-0.31888074
53	0xbe905f58	-0.28197742
54	0xbec61e34	-0.38694918
55	0xbe7cd582	-0.24690822
56	0xbe17b252	-0.14814118
57	0xbe939abc	-0.2882899
58	0xbefbf3a8	-0.49209332
59	0xbe8b44a0	-0.27200794
60	0xbf00845f	-0.5020198
61	0xbe88e31f	-0.2673578
62	0xbeaf64bc	-0.34256542
63	0xbedb54a6	-0.4283802
64	0xbeb47878	-0.3524816
65	0xbe1cea67	-0.15323792
66	0xbed5ef10	-0.41783953
67	0xbebc001a	-0.36718827
68	0xbe8c2ebe	-0.2737941
69	0xbeb1579c	-0.34637153
70	0xbecaebcb	-0.3963302
71	0xbe54b788	-0.20773137
72	0xbec36723	-0.38164625
73	0xbea900e4	-0.33008492
74	0xbef96f7d	-0.4871787
75	0xbe94c599	-0.29057005
76	0xbe98750e	-0.29776806
77	0xbe0f90b0	-0.14020038
78	0xbe7184ac	-0.23585767
79	0xbefbf1b8	-0.49207854
80	0xbee5ae96	-0.4485976
81	0xbe56e71e	-0.20986602
82	0xbed2fbf9	-0.41207865
83	0xbeead37b	-0.45864472
84	0xbe4a8c4b	-0.1978008
85	0xbeb7ca9e	-0.35896772
86	0xbe8262e3	-0.2546607
87	0xbe61efe4	-0.22064167
